…
 = F.relu(self.conv14(inp)) ze = F.relu(self.conv24(ze)) ze = F.relu(self.maxpool(self.conv34(ze))) #x = torch.flatten(x, 1) ze = ze.view(- 1 , 64 * 2 * 2 ) ze = self.dropout1(ze) ze = F.relu(self.fc14(ze)) ze = self.dropout2(ze) ze = self.fc24(ze) out_f = torch.cat((x, y, z, ze), dim= 1 ) #out_f1 = torch.cat((out_f, ze), dim=1) out = self.fc33(out_f) output = F.log_softmax(out, dim= 1 ) return output We can now use the model to set it to GPU. model = Net().to(device) We can even check the parameters: print(model.parameters) Which will result in: <bound method Module.parameters of Net( (conv11): Conv2d(1, 16, kernel_size=(3, 3), stride=(1, 1)) (conv12): Conv2d(1, 16, kernel_size=(5, 5), stride=(1, 1)) (conv13): Conv2d(1, 16, kernel_size=(7, 7), stride=(1, 1)) (conv14): Conv2d(1, 16, kernel_size=(9, 9), stride=(1, 1)) (conv21): Conv2d(16, 32, kernel_size=(3, 3), stride=(1, 1)) (conv22): Conv2d(16, 32, kernel_size=(5, 5), stride=(1, 1)) (conv23): Conv2d(16, 32, kernel_size=(7, 7), stride=(1, 1)) (conv24): Conv2d(16, 32, kernel_size=(9, 9), stride=(1, 1)) (conv31): Conv2d(32, 64, kernel_size=(3, 3), stride=(1, 1)) (conv32): Conv2d(32, 64, kernel_size=(5, 5), stride=(1, 1)) (conv33): Conv2d(32, 64, kernel_size=(7, 7), stride=(1, 1)) (conv34): Conv2d(32, 64, kernel_size=(9, 9), stride=(1, 1)) (maxpool): MaxPool2d(kernel_size=2, stride=2, padding=0, dilation=1, ceil_mode=False) (dropout1): Dropout(p=0.25, inplace=False) (dropout2): Dropout(p=0.5, inplace=False) (fc11): Linear(in_features=7744, out_features=256, bias=True) (fc12): Linear(in_features=4096, out_features=256, bias=True) (fc13): Linear(in_features=1600, out_features=256, bias=True) (fc14): Linear(in_features=256, out_features=256, bias=True) (fc21): Linear(in_features=256, out_features=128, bias=True) (fc22): Linear(in_features=256, out_features=128, bias=True) (fc23): Linear(in_features=256, out_features=128, bias=True) (fc24): Linear(in_features=256, out_features=128, bias=True) (fc33): Linear(in_features=512, out_features=10, bias=True) )> It is good to have unit test modules in case of bigger code bases. import unittest class TestImplementations(unittest.TestCase): # Dataloading tests def test_dataset (self): self.dataset_classes = [ '0 - zero' , '1 - one' , '2 - two' , '3 - three' , '4 - four' , '5 - five' , '6 - six' , '7 - seven' , '8 - eight' , '9 - nine' ] self.assertTrue(train_d
…
